Modules/object_detection/py_nodes/digitnum_det/model/net_012.pth (torch_old, 248622 bytes, 10 tensors)

conv1.0.weight f4 [6, 1, 5, 5]
0	0xbcdae045	-0.026718268
1	0x3e0e034a	0.13868442
2	0x3e87f308	0.26552606
3	0x3e949748	0.29021668
4	0x3e60fe2f	0.21971963
5	0xbdea9526	-0.11454229
6	0xbe47b2b0	-0.19501758
7	0xbc4c21d8	-0.012459241
8	0x3ddfb971	0.10924042
9	0x3e4ae1e2	0.1981273
10	0xbe041764	-0.12899548
11	0xbdf693ff	-0.12039947
12	0xbd01ab16	-0.0316573
13	0x3e31baf7	0.17356478
14	0x3db4637a	0.08808036
15	0xbd346d9c	-0.044049844
16	0xbe941022	-0.28918558
17	0xbe1a7609	-0.1508409
18	0xbe1af6c9	-0.15133204
19	0x3ec0d56c	0.37662828
20	0xbd3e5fa1	-0.046477918
21	0xbe708958	-0.23489892
22	0x3da8bf7c	0.08239648
23	0xbe03f7d4	-0.12887508
24	0x3e8815d4	0.26579154
25	0x3d991e38	0.07476467
26	0x3eacefa2	0.33776575
27	0x3ea58858	0.32330585
28	0x3e4aca4b	0.19803731
29	0xbd81a253	-0.06329789
30	0x3ec07589	0.37589672
31	0x3f328fab	0.6975047
32	0x3f068d72	0.5255958
33	0x3dd53a9e	0.10411571
34	0xba12378c	-0.0005577735
35	0x3f06a087	0.52588695
36	0x3f3511ae	0.707301
37	0x3e9ebbd7	0.31002685
38	0x3d10bbf8	0.03533551
39	0x3e0e62c9	0.13904871
40	0x3dcd7d6d	0.10033689
41	0x3dc4bf96	0.096068546
42	0x3c0e3ccf	0.00868149
43	0xbe2141c3	-0.15747742
44	0x3c08aeee	0.008342488
45	0x3c9cc76d	0.019138062
46	0xbe6fbe39	-0.23412408
47	0xbe72e9f2	-0.23722056
48	0xbdc0c78c	-0.094130605
49	0xbe7777f1	-0.24166848
50	0x3e076fc3	0.13226227
51	0x3e75104b	0.23931997
52	0xbe8d1a74	-0.27559245
53	0xbe855f44	-0.26049244
54	0xbe5fcd87	-0.21855746
55	0x3eae737a	0.34072477
56	0x3ede1686	0.4337656
57	0x3ea2060b	0.31645235
58	0x3d8ed85b	0.0697486
59	0xbe30b7ee	-0.17257664
60	0x3e4c67df	0.19961499
61	0x3ed61689	0.41814068
62	0x3ee93c02	0.45553595
63	0xbe02dca9	-0.12779488
64	0xbea80271	-0.32814363
65	0xbe732262	-0.23743585
66	0x3e9fb799	0.3119476
67	0x3ef9647d	0.4870948
68	0x3f06c105	0.52638274
69	0x3e2cfcc6	0.168933
70	0xbee32c07	-0.44369528
71	0xbb83dae0	-0.0040238947
72	0x3ea6a1a0	0.32545185
73	0x3eb6a47d	0.3567237
74	0x3e6c0cf5	0.23051818
75	0x3e04e4db	0.12977926
76	0x3e5587d3	0.20852594
77	0x3e448dcf	0.1919472
78	0x3d78cdcc	0.06074314
79	0x3d96652d	0.073435165
80	0xbe6dee5e	-0.23235461
81	0xbea3e6b6	-0.32011956
82	0xbda7b7ef	-0.081893794
83	0xbd239035	-0.03993245
84	0xbe772a27	-0.24137174
85	0x3b8d8ffb	0.0043201423
86	0xbe898a48	-0.26863313
87	0xbeac75bd	-0.33683577
88	0xbee3ecc8	-0.44516587
89	0xbe8c9d79	-0.27463892
90	0x3d2b1873	0.041771363
91	0x3e18279e	0.14858863
92	0x3bcca2d3	0.006244996
93	0xbe5a403c	-0.21313566
94	0xbcb839f1	-0.022488566
95	0x3e9b19d8	0.30293155
96	0x3e3b8f3f	0.18316363
97	0x3eb7faad	0.35933438
98	0x3f140644	0.5782206
99	0x3eedaea4	0.46422303
100	0x3d9c8230	0.07642019
101	0x3dde948e	0.10868178
102	0x3ecd05f4	0.40043604
103	0x3f0bee90	0.5466089
104	0x3ee8af7b	0.4544638
105	0x3dea8306	0.11450772
106	0x3e95da7e	0.2926826
107	0x3e883aa3	0.26607236
108	0x3ec2c426	0.38040274
109	0x3ee58431	0.44827417
110	0x3e3a3ef5	0.18188079
111	0x3ccb9a49	0.024853842
112	0xbd96b7b2	-0.07359256
113	0x3d44f927	0.048089173
114	0x3d8132ca	0.06308515
115	0xbe42d771	-0.19027497
116	0xbdb30bc1	-0.08742476
117	0xbe9b10d8	-0.30286288
118	0xbedde62a	-0.43339664
119	0xbe9bf56d	-0.30460683
120	0xbdd4fde2	-0.10399987
121	0xbee327f3	-0.44366416
122	0xbed0bfdb	-0.40771374
123	0xbef4fd72	-0.47849613
124	0xbe834304	-0.25637066
125	0xbe915148	-0.28382325
126	0x3e5297e9	0.20565762
127	0x3ef6ac5c	0.48178375
128	0x3d95b540	0.07309961
129	0x3dc2c562	0.09510304
130	0xbe820836	-0.2539689
131	0x3ebec13b	0.37256798
132	0x3eb47eb7	0.35252926
133	0x3e452fb0	0.19256473
134	0xbeb9ee8c	-0.3631481
135	0x3d6bb928	0.057549626
136	0x3e8b7021	0.27233985
137	0x3eeb7e41	0.45994762
138	0xbe197bc0	-0.14988613
139	0xbe2a51af	-0.16632722
140	0x3e3ecbed	0.18632479
141	0x3f00a344	0.50249124
142	0x3ea95c06	0.3307802
143	0xbdb7d96a	-0.08977015
144	0xbe8446e3	-0.25835332
145	0x3de4463b	0.11146208
146	0x3e9cef4e	0.30651325
147	0x3e1f098c	0.15530986
148	0xbb156777	-0.0022797266
149	0xbea12003	-0.31469736

conv1.0.bias f4 [6]
0	0xbd9e83c9	-0.0773998
1	0x3c3866f5	0.011255016
2	0xbd9609b4	-0.073260695
3	0x3d311e46	0.04324176
4	0x3e0c27bc	0.13687032
5	0xbe164852	-0.14676026

conv2.0.weight f4 [16, 6, 5, 5]
0	0x3dd6942d	0.10477481
1	0x3be48075	0.006973321
2	0xbd3c21c4	-0.04593064
3	0x3db88e1b	0.090114795
4	0x3c8b2518	0.016985461
5	0x3e18fb95	0.14939721
6	0xbd30341a	-0.043018438
7	0x3a05f831	0.0005110531
8	0x3c78452e	0.0151532125
9	0xbd3e5852	-0.046470948
10	0x3de72ec1	0.112882145
11	0x3d45fd10	0.048337042
12	0x3d1c286c	0.038124487
13	0x3d8b9f35	0.06817476
14	0xbda02e97	-0.07821386
15	0xbd8c4ca4	-0.068505555
16	0xbceb7554	-0.02874247
17	0x3d08cda4	0.03339924
18	0xbc8e79e5	-0.017392108
19	0xbdecdf9f	-0.1156609
20	0x3a92c8ab	0.001119872
21	0x3ca93032	0.020652864
22	0x3d00bf28	0.0314323
23	0xbdbad8d1	-0.09123386
24	0x3d8719a5	0.06596688
25	0xbd293c0a	-0.041317023
26	0x3db7a27e	0.0896654
27	0xbe2b528d	-0.1673071
28	0xbe1819ba	-0.14853564
29	0xbdd72802	-0.10505678
30	0xbb3ca890	-0.0028786995
31	0x3d1ddacd	0.038538743
32	0xbdf38599	-0.11890716
33	0xba357ba0	-0.00069230236
34	0x3d204326	0.039126538
35	0xbe691ec1	-0.22765638
36	0x3cba3e9c	0.022734933
37	0x3d9dc6f6	0.077039644
38	0x3e71994b	0.23593633
39	0x3dff3e7a	0.12463088
40	0xbcbfec57	-0.023428125
41	0x3de9fee4	0.1142557
42	0x3ddac6e7	0.10682469
43	0xbd1e8d5a	-0.038709022
44	0xbdeb1c09	-0.11479957
45	0xbdb74446	-0.08948569
46	0x3c605929	0.013693132
47	0xbdda6dc6	-0.10665469
48	0xbd9f94bd	-0.077920415
49	0x3b92925b	0.0044730133
50	0x3e51fea0	0.20507288
51	0x3e63c2cf	0.22242282
52	0xbd18a662	-0.03726805
53	0x3d071f35	0.032988746
54	0xbd9b827d	-0.07593248
55	0xbcb1a508	-0.021685138
56	0x3e3726ac	0.17885846
57	0x3e00135d	0.12507387
58	0x3da979be	0.082751736
59	0x3c73a8e3	0.014871809
60	0xbdf83ae3	-0.12120607
61	0xbcfeaaf9	-0.031087385
62	0x3d2d9d04	0.04238607
63	0x3dbf956a	0.0935467
64	0xbc06d07d	-0.008228418
65	0x3b3a3e2e	0.002841841
66	0xbce33194	-0.027733602
67	0xbd9ea521	-0.077463396
68	0xbdb7455d	-0.08948777
69	0xbcf0aa0d	-0.029377962
70	0xbda43955	-0.08018748
71	0xbc7e5648	-0.015523501
72	0xbd3fa46a	-0.046787657
73	0xbddb0c38	-0.1069569
74	0xbbc877e7	-0.006117809
75	0xbdcad72f	-0.09904324
76	0x3d55f084	0.052231327
77	0x3d6dc579	0.058049653
78	0x3d15952e	0.036519222
79	0xbc6fa89a	-0.0146276
80	0xbddc20bd	-0.10748432
81	0x3d1bbef6	0.03802391
82	0xbca27ce9	-0.019834952
83	0xbd8f8c8f	-0.07009231
84	0xbb7cc146	-0.0038567348
85	0x3d30c054	0.04315217
86	0x3d7f021b	0.062257867
87	0x3cfab9fb	0.03060626
88	0xbdc5b820	-0.0965426
89	0xbcfb8875	-0.030704716
90	0xbc6d390d	-0.014478934
91	0x3cfbd8e1	0.030743064
92	0x3cc82e19	0.024436044
93	0x3c9519b1	0.018200727
94	0xbd0bd7fa	-0.03414152
95	0x3bd2ec5a	0.0064368667
96	0x3bc7b712	0.0060948217
97	0xbc21271f	-0.009835987
98	0xbdf55a6e	-0.11980139
99	0xbdac8934	-0.08424607
100	0xbe1b854a	-0.15187564
101	0xbe3ce9c2	-0.18448547
102	0xbcf31b57	-0.029676123
103	0x3c9392f0	0.018014401
104	0xbb9f6789	-0.0048646373
105	0x3c0dbd6e	0.008651121
106	0xbdf2d323	-0.118566774
107	0xbdd78120	-0.105226755
108	0x3c457b76	0.012053361
109	0x3d9da44d	0.076973535
110	0xbd53dcc6	-0.051724218
111	0x3b24b571	0.0025132562
112	0x3d533dd2	0.05157263
113	0x3dce6ff1	0.10079945
114	0x3daee138	0.08539051
115	0x3d509579	0.0509238
116	0x3c1745b6	0.009232929
117	0x3d4649c8	0.048410207
118	0x3d68d93c	0.056847796
119	0xbe27ca95	-0.16385873
120	0x3d698625	0.057012696
121	0xbd141da4	-0.03616108
122	0xbc24d4e7	-0.0100605255
123	0xbddb5a70	-0.10710609
124	0xbd8f93e1	-0.070106275
125	0x3a390068	0.00070572505
126	0x3c7eee8c	0.015559804
127	0xbe0f8738	-0.14016426
128	0xbd4e6023	-0.050384652
129	0xbaaa9021	-0.0013012924
130	0xbd403e50	-0.046934426
131	0x3ce213cd	0.027597332
132	0xbe114b66	-0.14188918
133	0x3dffd314	0.12491432
134	0x3e0c4a4d	0.13700218
135	0x3c82a489	0.015947597
136	0x3ce171c8	0.027520075
137	0xbb936de6	-0.004499185
138	0x3cdb834e	0.02679601
139	0xbca0c8a1	-0.019626917
140	0x3db02708	0.086011946
141	0x3ddac482	0.10682012
142	0x3a5df6c8	0.0008467254
143	0xbd6ea279	-0.058260415
144	0xbc8fd7f7	-0.017559035
145	0xbadddcd6	-0.0016926776
146	0xbd0dd7fe	-0.034629814
147	0xbbb55fa2	-0.005535082
148	0xbd77616d	-0.060395647
149	0xbd7cb923	-0.061699998
150	0x3ba08188	0.004898254
151	0x3cc6a3be	0.024248
152	0x3cf397d5	0.029735485
153	0xbd8fba39	-0.07017941
154	0x3d371646	0.044698976
155	0xbd768ac8	-0.060190946
156	0xbcd16a65	-0.025563428
157	0x3c8f9b5e	0.01753014
158	0x3bcfe945	0.0063449466
159	0xbdaaaa05	-0.0833321
160	0xbcd79337	-0.026315315
161	0x3cb04357	0.021516485
162	0xbd96c501	-0.07361794
163	0xbd43dbcb	-0.047817033
164	0xbafb188c	-0.0019157096
165	0x3da3d6e2	0.0799997
166	0xbd023148	-0.03178528
167	0x3da49682	0.080365196
168	0x3c1962ce	0.009361936
169	0x3cd10fbe	0.025520202
170	0x3da71688	0.08158594
171	0xbca61935	-0.020275692
172	0x3d83d53e	0.06437157
173	0x3bbc54ef	0.0057474296
174	0x3d9c91dd	0.07645009
175	0xbde17894	-0.110093266
176	0x3e10fabd	0.14158149
177	0x3dd7c60c	0.10535821
178	0xbdf405ea	-0.119151905
179	0xbdec2ed9	-0.11532373
180	0xbdc65cb6	-0.09685652
181	0xbd315900	-0.043297768
182	0xbe4627e3	-0.19351153
183	0xbe6c329d	-0.23066182
184	0xbda2c324	-0.07947376
185	0x3d867366	0.06564979
186	0x3ba386a1	0.0049904143
187	0x3e340bdb	0.17582648
188	0x3e4fa73b	0.20278637
189	0x3e26b0ef	0.16278432
190	0x3e51196b	0.20419852
191	0x3ea723fa	0.32644635
192	0x3e9cb010	0.30603075
193	0x3e3bdb1c	0.18345302
194	0x3e30836a	0.1723763
195	0xbe32b15c	-0.1745047
196	0xbe4dbd00	-0.20091629
197	0xbe94eb0a	-0.2908557
198	0xbe88d3c3	-0.2672406
199	0xbe08ee52	-0.13372162
200	0xbdcb926b	-0.099400364
201	0xbe078fcb	-0.13238446
202	0xbd071840	-0.03298211
203	0xbd283007	-0.041061427
204	0xbdda8948	-0.106707156
205	0x3bb5c6cf	0.0055473815
206	0x3d0cb209	0.034349475
207	0xbd7bdb21	-0.061488274
208	0xbd09e5c0	-0.033666372
209	0x3d73970d	0.059470225
210	0x3e3c1fca	0.18371502
211	0x3dcb4e95	0.09927098
212	0x3cd02b1b	0.02541118
213	0x3d6130cb	0.054978173
214	0x3df152d4	0.11783376
215	0x3d7eec99	0.062237356
216	0xbca2425c	-0.019807033
217	0x3dfab7e7	0.12242108
218	0x3d1755e1	0.036947135
219	0x3db737d7	0.089461975
220	0xbdadc70a	-0.08485229
221	0xbe557958	-0.2084707
222	0xbe38a178	-0.18030345
223	0xbe2b8341	-0.16749288
224	0xbe5af975	-0.21384223
225	0xbdca96e9	-0.09892065
226	0xbdc00fa4	-0.09377983
227	0xbce3e7fe	-0.027820583
228	0xbd8af32f	-0.06784665
229	0x3d809740	0.06278849
230	0x3d63fb14	0.05565937
231	0x3df6ed7d	0.12057016
232	0x3de50ad7	0.11183708
233	0x3e09fb7d	0.13474841
234	0x3d5bf43d	0.05369972
235	0x3e0ec4f1	0.13942315
236	0x3e431505	0.19050987
237	0x3d177337	0.03697511
238	0x3cc2bd4a	0.0237719
239	0x3c92da4b	0.017926356
240	0x3d73752e	0.059437923
241	0x3cc788df	0.024357257
242	0x3b293550	0.002581913
243	0x3cfe4736	0.031039815
244	0xbd322fb9	-0.043502543
245	0x3c5c1780	0.013433337
246	0x3de90cfe	0.11379431
247	0x3e56d051	0.20977904
248	0x3e1acff6	0.15118393
249	0x3d1e9e98	0.038725466
250	0xbd464bf9	-0.048412297
251	0xbc2f9f02	-0.010719063
252	0xbc7fae8e	-0.015605582
253	0xbdd0b583	-0.101908706
254	0xbe2837fc	-0.16427606
255	0xbdb1f06e	-0.086884364

conv2.0.bias f4 [16]
0	0xbc563388	-0.013073809
1	0xbdc09df3	-0.094051264
2	0xbdff23aa	-0.12457974
3	0xbe003276	-0.1251925
4	0x3c667bb4	0.014067579
5	0x3d4c6c91	0.049908224
6	0xbd2d4e9d	-0.0423113
7	0xbdd53f7c	-0.10412499
8	0x3c95b9ac	0.018277012
9	0xbd1626d8	-0.036658138
10	0xbc0472e2	-0.008084031
11	0xbc7a147e	-0.015263675
12	0x3dca8159	0.09887952
13	0x3c415bb0	0.011801645
14	0xbd71b0de	-0.059006564
15	0xbd8d9eb2	-0.06915034

fc1.0.weight f4 [120, 400]
0	0x3d3a35de	0.045461528
1	0xbd4132d1	-0.047167603
2	0xbc350bc4	-0.011050168
3	0x3cf21832	0.029552553
4	0x3b904599	0.004402828
5	0xbcbeb51a	-0.023279715
6	0xbc9762b7	-0.018479688
7	0xbc9917eb	-0.018688163
8	0x3d12ee2e	0.035871677
9	0xb98a3ee3	-0.00026368265
10	0xbb124396	-0.0022318116
11	0x3d38a90f	0.0450831
12	0x3c17a4cf	0.009255602
13	0x3d22e177	0.0397658
14	0x3d3b19e6	0.045678996
15	0xbcf0c1f4	-0.029389359
16	0xbc72dafc	-0.014822718
17	0xbc03bed2	-0.008041101
18	0xbd554215	-0.052064974
19	0xbd0880ae	-0.033325844
20	0x3cc88061	0.024475278
21	0xbc9e1089	-0.019294994
22	0xbd03284b	-0.03202085
23	0x3d304cec	0.04304211
24	0xbd05f5f5	-0.032705266
25	0x3b4ec1d9	0.0031548648
26	0x3cda7738	0.026668176
27	0x3bcaa014	0.0061836336
28	0x3cca95b2	0.024729583
29	0xbba2bedb	-0.0049665994
30	0xbd17feed	-0.03710835
31	0xbd35aad0	-0.044352353
32	0xbcd2db9e	-0.025739487
33	0xbc89df86	-0.016830217
34	0xbc9b7836	-0.01897822
35	0xbd3bd1ea	-0.045854487
36	0xbbc11254	-0.0058920775
37	0xbcc60467	-0.024172021
38	0x3cc508c4	0.024052031
39	0xbd4573b9	-0.048206065
40	0x3bafe60a	0.005367999
41	0xbcb0a825	-0.021564553
42	0x3c75ea15	0.015009423
43	0xbd025779	-0.0318217
44	0xbc8ee1a8	-0.017441586
45	0x3c186033	0.009300279
46	0xbd5d00cf	-0.05395585
47	0x3ca8f7ed	0.020626033
48	0xbcff1644	-0.031138547
49	0x3ba6b053	0.0050869375
50	0x3d490395	0.04907568
51	0xbd1ba36e	-0.037997656
52	0xbcbbf1c2	-0.022942428
53	0xbb9d6cb9	-0.0048042205
54	0x3c402a26	0.011728799
55	0xbd2c0d42	-0.04200483
56	0xbbd0b02c	-0.0063686576
57	0x3d39e66e	0.04538577
58	0xbd267221	-0.040636186
59	0xbcabdb22	-0.020978514
60	0x3d26d090	0.040726244
61	0x3d43ac53	0.047771763
62	0x3c898786	0.016788255
63	0x3c8daeff	0.017295359
64	0xbce7e1e9	-0.028305965
65	0x3b9b58af	0.0047407965
66	0xbd124773	-0.03571267
67	0x3ce8f4dd	0.028437072
68	0xbcd31821	-0.025768341
69	0xbd0f497f	-0.0349822
70	0xbd0ea745	-0.03482749
71	0x3cbc054a	0.02295174
72	0x3c9ce455	0.019151846
73	0x3d29c2b0	0.041445434
74	0xbd3edcdb	-0.046597343
75	0x3d18ada7	0.037274983
76	0xbcfe80e7	-0.031067325
77	0x3d1ff7aa	0.03905455
78	0xbb197ea2	-0.0023421426
79	0xbcb73dbf	-0.02236831
80	0x3d4533e2	0.048145182
81	0xbcbc00a5	-0.022949526
82	0xbd3a6dad	-0.04551475
83	0x3c8240bc	0.015900008
84	0xbcaac1b7	-0.020844324
85	0x3d258868	0.04041329
86	0xbd3f27c6	-0.04666879
87	0xbd31f41b	-0.043445688
88	0x3c8ab781	0.016933205
89	0xbd14ef36	-0.03636094
90	0x3cc85b4a	0.024457593
91	0xbbdf6c46	-0.006818327
92	0x3be4bc6b	0.006980469
93	0x38ae87a4	8.3222316e-05
94	0xbcd72a01	-0.026265146
95	0x3c2de717	0.010614178
96	0x39b91161	0.00035298898
97	0xbd19aa41	-0.037515882
98	0x3cf4180e	0.029796626
99	0xbc43416c	-0.011917453
100	0x3d39f1af	0.045396503
101	0xbd0860de	-0.033295505
102	0xbbd8eff6	-0.0066204024
103	0x3d2d69df	0.042337295
104	0xba506732	-0.00079499476
105	0xbc28afae	-0.010295792
106	0x3ccd6a01	0.02507496
107	0x3d0befa9	0.034164105
108	0x3c81d3ef	0.015848128
109	0xbd4b810f	-0.049683627
110	0x3cedd5d6	0.029032629
111	0x3cc260ec	0.023727857
112	0xbc0929e6	-0.008371806
113	0xbc13d154	-0.009022076
114	0x3d435a30	0.04769343
115	0x3d297964	0.041375533
116	0x3cecd54e	0.028910305
117	0xbcd3fb49	-0.025876658
118	0x3aef6fd2	0.0018267578
119	0x3d376c40	0.04478097
120	0x3cfc2da8	0.03078349
121	0x3ce7f878	0.028316721
122	0xbc630a4c	-0.013857435
123	0xbcea921e	-0.028634127
124	0xbc031115	-0.007999678
125	0x3d063c37	0.03277227
126	0xbd2ffc22	-0.042965062
127	0xbcb2d0ac	-0.021828018
128	0xbca941a1	-0.020661177
129	0xbba2890b	-0.0049601845
130	0x3cd38201	0.025818827
131	0x3c990bca	0.01868238
132	0xbc1e10e8	-0.009647585
133	0x3b579b06	0.0032898798
134	0x3d1fdf2f	0.039031204
135	0x3c84bd6a	0.0162036
136	0x3c865abb	0.016400686
137	0x3cb531d9	0.022118496
138	0x3ce6ca96	0.028172772
139	0xbc4f2da5	-0.01264516
140	0xbd3c6292	-0.04599244
141	0xbcfa73b3	-0.030572748
142	0xbd472be8	-0.048625857
143	0x3a3bcb77	0.00071638025
144	0xbcbf2597	-0.023333354
145	0x3cf5ff7d	0.030029053
146	0xbd0ff17d	-0.03514241
147	0xbba942c9	-0.005165432
148	0xbbd91532	-0.006624841
149	0xbc85e59d	-0.01634484
150	0x3d3f7ac0	0.046747923
151	0xbb91a2b5	-0.004444445
152	0x3c38052d	0.011231703
153	0xbc95a260	-0.018265903
154	0xbc590f5a	-0.013248289
155	0x3d0ad735	0.033896644
156	0x3d45b2ac	0.048266098
157	0xbbd39595	-0.0064570406
158	0xbd07d9d4	-0.03316672
159	0xbc1e1aa8	-0.00964991
160	0xbcc6496a	-0.024204928
161	0xbc2bbec4	-0.010482494
162	0xbd25d97f	-0.040490624
163	0xbb94a414	-0.004536161
164	0xbc5c41b7	-0.013443402
165	0xbd45004c	-0.048095986
166	0xbb02f1f3	-0.0019980639
167	0x3d15cf3e	0.036574595
168	0x3b762841	0.0037560614
169	0x3b9e9680	0.0048397183
170	0x3cfddc5c	0.030988865
171	0x3ce2d5a9	0.027689772
172	0xbd142cb7	-0.036175456
173	0x3b54bbe8	0.0032460634
174	0xbd03320c	-0.03203015
175	0xbc9cebc6	-0.019155394
176	0xbd4ce90d	-0.050026942
177	0xbc18c89e	-0.009325175
178	0xbb7be18f	-0.0038434004
179	0x3cc0e3a9	0.023546057
180	0xbc5d53c3	-0.01350874
181	0x3c8b9f1f	0.017043648
182	0xbc30ae8c	-0.010783803
183	0x3c7c7fde	0.015411345
184	0xbbab5a32	-0.005229258
185	0xbc1632d9	-0.009167396
186	0xbcf33048	-0.029686108
187	0x3c34754e	0.011014296
188	0xbcffa437	-0.031206233
189	0x3c4adf92	0.012382405
190	0xbc6767af	-0.014123841
191	0xbc368f26	-0.011142528
192	0xbbd8b67d	-0.006613551
193	0xbd2ed82b	-0.042686623
194	0xbd488378	-0.048953503
195	0x3b47876a	0.0030445703
196	0xbcb5d931	-0.022198291
197	0x3ce23f79	0.027618157
198	0xbc92debc	-0.017928474
199	0xbc91a05f	-0.017776666
200	0x3952c6f3	0.00020101275
201	0x3d2c8318	0.04211721
202	0xbce5eee3	-0.028068012
203	0x3b4aec1a	0.0030963481
204	0xba1f8c8b	-0.0006086311
205	0x3d3ae9c3	0.04563309
206	0x3c1d7536	0.009610465
207	0xbd17da42	-0.03707338
208	0x3d15a41a	0.036533453
209	0x3cdde3e2	0.027086202
210	0x3d000bb7	0.031261172
211	0x3d2f200b	0.042755168
212	0xbcda6016	-0.026657145
213	0xbd4bafdd	-0.049728263
214	0xbd4255b4	-0.047445014
215	0x3cd85105	0.02640582
216	0x3d2833a5	0.041064877
217	0xbd1ef062	-0.038803466
218	0x3d05d711	0.032675806
219	0xbc520267	-0.012817956
220	0x3c1f56bd	0.00972527
221	0xbc02278d	-0.007944
222	0x3d1ea514	0.03873165
223	0x3c8a23dd	0.016862804
224	0xbbfe27cc	-0.007756209
225	0xbd180dc8	-0.037122518
226	0xbb9bbdb9	-0.0047528413
227	0xbd014ef7	-0.031569447
228	0x3c5a4679	0.013322466
229	0xbbc2d69d	-0.005945994
230	0x3ce8c05a	0.028412033
231	0xbd2402b2	-0.040041633
232	0xbd57087c	-0.052498326
233	0xbd2e4fb7	-0.04255649
234	0x3d43e253	0.04782326
235	0x3b71c25a	0.0036889524
236	0x3d2f1f45	0.04275443
237	0x3b8be5c2	0.0042693326
238	0xbd01b66b	-0.031668108
239	0xbc073d23	-0.008254322
240	0x3ac359e6	0.0014904111
241	0xbd3d39bc	-0.046197638
242	0x3d0e2990	0.034707606
243	0xb8d46f17	-0.0001012964
244	0xbbffbd49	-0.007804547
245	0x3d36a4b0	0.044590652
246	0xbd361c2f	-0.04446047
247	0x3c8b2fd6	0.016990583
248	0x3bc65f86	0.0060538677
249	0xbaa50595	-0.0012590165
250	0x3d18edfa	0.037336327
251	0x3d21e0bb	0.03952096
252	0x39fe5ea4	0.00048517168
253	0x3c1ddb5c	0.009634819
254	0x3ce5489a	0.02798872
255	0x3d4032f8	0.046923608

fc1.0.bias f4 [120]
0	0xbc8944c1	-0.016756417
1	0xbca12f15	-0.01967577
2	0x3cadb2d3	0.021203434
3	0xbc93e5f8	-0.018053994
4	0xbc8a794c	-0.016903542
5	0x3d0c9333	0.034320068
6	0x3bfac3b8	0.007652726
7	0x3d189aad	0.037256885
8	0xbd5190d5	-0.051163513
9	0xbc465a93	-0.0121065555
10	0x3cb7bb84	0.022428282
11	0xbbbcaa4b	-0.005757605
12	0xbd29ae55	-0.04142602
13	0xbcedce50	-0.029029042
14	0x3d06b1ef	0.032884534
15	0x3b08e592	0.0020888788
16	0xbc9ca280	-0.019120455
17	0x3cb74d92	0.022375856
18	0xbbbadeb0	-0.005702816
19	0xbc2e7902	-0.010648968
20	0x3d5bfa5d	0.053705562
21	0x3d8cfb32	0.06883849
22	0x3d49856d	0.04919951
23	0x3d5157c4	0.05110909
24	0x3d197378	0.037463635
25	0xbc9ca732	-0.019122694
26	0x3d3dbb2c	0.04632108
27	0x3d69c28f	0.05707031
28	0x3a059728	0.00050960714
29	0xbce73066	-0.02822132
30	0x3bb4750e	0.005507118
31	0xba544176	-0.00080969126
32	0x3c1d60a1	0.009605558
33	0xbcae1311	-0.021249326
34	0x3d3e9cfd	0.046536434
35	0xbc3a9581	-0.011388184
36	0x3d22ee2e	0.039777927
37	0x3c8a9fb3	0.016921854
38	0x3d21eca9	0.039532337
39	0x39bc8371	0.00035956086
40	0x3d3b4579	0.04572055
41	0xbcaf18fc	-0.021374218
42	0x3cfeb1d4	0.031090654
43	0x3d4f0191	0.050538603
44	0x3d2fdadd	0.042933334
45	0x3ce3392d	0.027737224
46	0x3d526357	0.05136427
47	0xbd2e428b	-0.04254393
48	0x3d1108bb	0.035408717
49	0x3ce52404	0.027971275
50	0xbcc8d8a8	-0.024517372
51	0x3b4a72f2	0.0030891267
52	0x3c1988a0	0.009370953
53	0xbd456dd3	-0.04820044
54	0x3d149dd6	0.036283337
55	0xbc260f94	-0.01013555
56	0xbd0199d9	-0.03164086
57	0x3d35270f	0.044226702
58	0x3d3d945c	0.046284065
59	0x3d763691	0.060110632
60	0x3c3a896c	0.011385303
61	0x3caa30b3	0.020775175
62	0x3d1bf2f8	0.03807351
63	0x3d204f5a	0.039138176
64	0x3d4a86fc	0.049445137
65	0x3d339cd4	0.043850735
66	0x3c8cf166	0.017204951
67	0xbc0b5bb9	-0.008505755
68	0x3d471a5d	0.048609126
69	0x3d8af504	0.06785014
70	0xbd12a97e	-0.03580617
71	0xbcb4763c	-0.022029035
72	0x3d0638b5	0.032768924
73	0x3d1766ff	0.03696346
74	0xbc8f87c3	-0.01752079
75	0xbd2f5bd0	-0.04281217
76	0xbcd28025	-0.02569587
77	0xbbe5eaa5	-0.007016497
78	0x3d81b023	0.063324235
79	0xbb892ce1	-0.004186258
80	0x3c33152a	0.010930339
81	0x3d43f560	0.04784143
82	0xbc5ba1fa	-0.013405317
83	0x3af2555f	0.0018488577
84	0xbb931ae6	-0.0044892905
85	0xbc070c1b	-0.008242632
86	0x3d585c04	0.052822128
87	0x3d3d1434	0.046161845
88	0xbccda72a	-0.025104124
89	0xbd286009	-0.04110721
90	0xbbb8e3ad	-0.0056423754
91	0x3a85f548	0.0010220194
92	0x3c309081	0.01077664
93	0x3caa68fa	0.02080201
94	0x3cd4b036	0.02596293
95	0x3c7c018b	0.015381227
96	0xbd03c00a	-0.032165565
97	0xbd3c6b28	-0.04600063
98	0x3d7de610	0.061986983
99	0x3d394542	0.045232065
100	0x3d2a5bf3	0.041591596
101	0xbd4016c3	-0.046896707
102	0x3ceacfd0	0.028663546
103	0x3d2b3ca0	0.041805863
104	0xbce0b185	-0.027428398
105	0x3ce6a00a	0.028152484
106	0xbbca47af	-0.006173096
107	0x3c5a87ac	0.013338011
108	0xbbf5cce3	-0.007501231
109	0xbd169e28	-0.036771923
110	0xbd196b95	-0.037456114
111	0x3c923088	0.017845407
112	0xbc400d31	-0.011721895
113	0xbcc8fc7f	-0.024534462
114	0xbd0feb90	-0.03513676
115	0x3cc7e939	0.024403201
116	0xbd1d0d92	-0.03834302
117	0x3ceae1c9	0.028672116
118	0x3bcb02ab	0.0061953864
119	0xbd59dc3b	-0.053188544

fc2.0.weight f4 [84, 120]
0	0xbd9fa89b	-0.07795831
1	0x3d46cd1e	0.04853546
2	0x3d720d16	0.05909451
3	0x3c886c69	0.016653256
4	0xbc28b758	-0.010297619
5	0xbdb1194c	-0.08647403
6	0xbd887ade	-0.0666406
7	0x3d107d9b	0.035276037
8	0xbc78cf34	-0.01518612
9	0x3d801f88	0.06256014
10	0xbcd9bf5a	-0.026580501
11	0xbdf5bc57	-0.119988136
12	0xbdc8ba2e	-0.09801136
13	0xbd4f85b2	-0.05066461
14	0xbd62db46	-0.055384897
15	0xbda6aebf	-0.08138799
16	0xbd43ccda	-0.047802784
17	0x3b46bef8	0.0030326229
18	0xbd138b6b	-0.03602163
19	0x3ce4ce35	0.027930358
20	0x3d0c3570	0.03423065
21	0x3da0b392	0.0784675
22	0x3d253eba	0.040343024
23	0x3ccdb851	0.025112303
24	0x3994fba2	0.0002841624
25	0x3d1ba23d	0.03799652
26	0x3e05a511	0.13051249
27	0xbc6193d0	-0.013768151
28	0x3d82a2f3	0.06378736
29	0x3d4ef07b	0.05052231
30	0xbdb5ff25	-0.088865556
31	0x3e4e20a2	0.20129636
32	0x3cd34f52	0.025794659
33	0x3d78ef06	0.060774826
34	0x3da2edb1	0.07955492
35	0xbd79b901	-0.06096745
36	0x3d78d927	0.060753968
37	0xbdc3eefc	-0.09567067
38	0x3dae77dd	0.08518956
39	0xbd52b7fc	-0.051444992
40	0x3d585f48	0.052825242
41	0x3c5573ca	0.013028095
42	0xbcb19715	-0.021678487
43	0x3def38b5	0.11680738
44	0x3de37f8e	0.111083135
45	0xbc9599fc	-0.018261902
46	0xbd171f23	-0.03689493
47	0xbdbf3880	-0.093369484
48	0xbd48fd7a	-0.04906986
49	0xbd7d7a26	-0.061884068
50	0xbd932831	-0.071854
51	0x3a9a86cb	0.0011789439
52	0x3dbdca16	0.092670605
53	0x3dc069dd	0.09395192
54	0x3c9ea252	0.01936451
55	0x3d5f05ee	0.054449014
56	0x39317029	0.00016921818
57	0x3ce68b41	0.028142573
58	0xbdba5fc3	-0.09100296
59	0x3dd84d5e	0.105616316
60	0xbd0aca98	-0.033884615
61	0xbc0acd25	-0.008471762
62	0x3cda7a89	0.026669757
63	0xbdc7f477	-0.09763425
64	0x3cc0ee60	0.023551166
65	0xbd41a314	-0.047274664
66	0xbde35d66	-0.11101799
67	0x3d9cab54	0.07649866
68	0x3cb4a252	0.022050057
69	0x3ca495a6	0.02009089
70	0xbcdafc59	-0.026731657
71	0x3df656c5	0.12028269
72	0xbc92d22c	-0.017922483
73	0xbdce9eb3	-0.10088863
74	0x3c9a15fb	0.01880931
75	0xbdfdd887	-0.12394815
76	0x3d3770f4	0.044785455
77	0x3d8047c1	0.06263686
78	0xbac8681e	-0.0015289818
79	0x3d816bfc	0.063194245
80	0xbd4a30a1	-0.049362782
81	0x3e006f9d	0.12542577
82	0x3cee716a	0.029106814
83	0x3d2b80c0	0.041870832
84	0xbd63eaa3	-0.05564369
85	0xbd48cf6d	-0.04902594
86	0x3e33c7ea	0.1755673
87	0xbd045435	-0.03230687
88	0x39b77df0	0.0003499831
89	0xbd91dd18	-0.071222484
90	0x3d02729f	0.031847592
91	0x39817c11	0.00024697234
92	0x3d3b7c9e	0.04577314
93	0x3e2da99f	0.16959237
94	0xbd17a9d6	-0.037027203
95	0x3e255678	0.16146266
96	0xbd6b7697	-0.057486143
97	0x3d0740b6	0.033020698
98	0x3d2f057f	0.04272985
99	0x3d14dca1	0.03634322
100	0xbd7dede7	-0.06199446
101	0xbbd79be9	-0.0065798652
102	0xbe299987	-0.16562472
103	0x3ddad0d8	0.10684365
104	0x3ca9678a	0.020679254
105	0xbd83e419	-0.064399906
106	0x3d94358f	0.07236778
107	0xbd40026f	-0.04687732
108	0xbca3c493	-0.019991195
109	0xbd77ef37	-0.060530867
110	0xbd96da03	-0.07365801
111	0x3d9d8d2d	0.07692943
112	0xbdc630d3	-0.09677281
113	0xbd452a11	-0.04813582
114	0xbcbc59ec	-0.022992097
115	0x3cbc48fc	0.02298402
116	0x3b548665	0.0032428738
117	0xbc79945d	-0.0152331265
118	0xbdb36c90	-0.08760941
119	0x3d52b8a0	0.051445603
120	0xbcc52f27	-0.024070336
121	0x3cd3a392	0.025834832
122	0x3d5469f1	0.051858846
123	0x3823cc75	3.9052644e-05
124	0x3e0c91f1	0.13727547
125	0xbd79f2a6	-0.061022423
126	0x3d80152e	0.0625404
127	0xbe077c25	-0.13230951
128	0x3d3a2f88	0.045455486
129	0xbe0d0f3a	-0.1377534
130	0xbc1cf1d3	-0.00957914
131	0x3df33cfa	0.11876865
132	0x3d98a00e	0.07452403
133	0x3be9aa54	0.0071309004
134	0xbda211f5	-0.07913581
135	0x3d2b5b0c	0.041834876
136	0x3991f5a6	0.00027839578
137	0x3d0cb1b4	0.03434916
138	0x3d97b140	0.07406855
139	0xbd7cef7a	-0.06175182
140	0x3da6d010	0.081451535
141	0x3c63ef81	0.013912083
142	0xbe1890f6	-0.14899048
143	0xbd1faebc	-0.038985
144	0x3b35d77e	0.0027746852
145	0x3da2f680	0.079571724
146	0xbe354ecd	-0.17705841
147	0xbd83d0ee	-0.064363346
148	0xbe201f01	-0.15636827
149	0x3ca9c94e	0.020725872
150	0x3e22f2ea	0.15912977
151	0xbe41ae37	-0.18914114
152	0x3d489e4b	0.048979085
153	0x3cb6e085	0.022323856
154	0x3caf7244	0.02141679
155	0x3e0f63c7	0.14002906
156	0x3d8b9b77	0.06816762
157	0xbd61b962	-0.055108435
158	0x3c588b51	0.013216809
159	0xbd7b5623	-0.061361443
160	0x3ddd83e5	0.108161725
161	0xbd5bcdca	-0.053663053
162	0x3da12f8f	0.07870399
163	0xbd8df689	-0.069317885
164	0xbdad7e98	-0.084714115
165	0x3dbefce3	0.09325578
166	0xbcdff408	-0.027338043
167	0xbdf6775c	-0.12034485
168	0x3d95e4be	0.0731902
169	0x3dd3d7f8	0.10343927
170	0xbca61e90	-0.020278245
171	0x3d9f78b7	0.077866964
172	0x3de64d91	0.11245263
173	0xbdb3b54d	-0.08774815
174	0xbc0923bc	-0.008370336
175	0x3bf03f1a	0.007331741
176	0x3d4d6559	0.05014548
177	0x3e0ad78b	0.13558786
178	0x3d85a82c	0.06526217
179	0x3d854231	0.06506766
180	0x3d00e6f4	0.031470254
181	0x3d756578	0.05991122
182	0xbc40ce45	-0.0117679285
183	0x3d7b47ae	0.061347656
184	0xbe190683	-0.1494389
185	0xbd3baf3f	-0.045821425
186	0xbe1390f3	-0.14410762
187	0x3da6b248	0.08139473
188	0xbdb4bf03	-0.08825495
189	0x3d9faf70	0.07797134
190	0xbc3a3576	-0.011365285
191	0x3e117add	0.14207025
192	0x3d871fe9	0.06597883
193	0xbcd8f02a	-0.026481707
194	0xbdaa7704	-0.08323482
195	0xbdfdb4b0	-0.12387979
196	0x3dd29c9b	0.102837764
197	0x3d34d2b1	0.044146243
198	0x3dd91178	0.10599035
199	0xbdb46331	-0.08807982
200	0xbdc07837	-0.09397929
201	0xbde151b2	-0.1100191
202	0x3c61bf06	0.013778454
203	0x3d2261ac	0.03964393
204	0x3df336b6	0.1187567
205	0x3cbdcacd	0.023167992
206	0x3cbbdfe5	0.02293391
207	0x3dd999b3	0.10625019
208	0x3d117924	0.03551592
209	0xbc875322	-0.016519133
210	0xbdb93505	-0.09043316
211	0xbc6356d0	-0.013875678
212	0x3c6a9f29	0.014320173
213	0x3c0c4957	0.008562407
214	0xbe550378	-0.20802104
215	0x3d69aa22	0.057047017
216	0xbd973ef7	-0.073850565
217	0xbc890788	-0.016727224
218	0xbd185f6b	-0.037200373
219	0xbd7a39b2	-0.06109018
220	0x3d9f25f0	0.07770908
221	0x3d49d452	0.04927475
222	0x3e277383	0.16352658
223	0xbcaed995	-0.021343986
224	0xbd2719ba	-0.04079602
225	0x3db208a6	0.08693056
226	0x3d376620	0.04477513
227	0x3def1ede	0.11675809
228	0x3d0689bb	0.032846194
229	0x3da65336	0.0812134
230	0xbd2653a5	-0.040607113
231	0x3e2278f4	0.15866452
232	0x3c88609c	0.01664763
233	0x3c94b1cc	0.018151186
234	0x3dfe4e13	0.12417235
235	0xbccaf3ea	-0.02477451
236	0xbd32bcea	-0.043637194
237	0xbdb67ab8	-0.089101255
238	0x3b6f900d	0.0036554367
239	0xbc6c5931	-0.014425562
240	0x3bec6a71	0.0072148372
241	0x3dadb035	0.084808744
242	0x3b10e8ca	0.002211141
243	0x3c45a7bc	0.012063917
244	0xbdc16ce8	-0.094446
245	0xbcb943ad	-0.022615278
246	0xbd4d6d7c	-0.05015324
247	0xbdd1768b	-0.102276884
248	0xbdb0cf61	-0.086333044
249	0x3dc899f5	0.0979499
250	0x3d83ed2a	0.0644172
251	0x3d04326b	0.032274645
252	0xbd6ead28	-0.058270603
253	0xbda4f559	-0.08054609
254	0xbc3bf843	-0.011472764
255	0xbd0a4ed0	-0.033766568

fc2.0.bias f4 [84]
0	0xbd3df6eb	-0.046378057
1	0xbc3a020b	-0.011353026
2	0x3d041890	0.032249987
3	0x3dc14ec0	0.094388485
4	0x3c8cb356	0.017175358
5	0x3c3f6fea	0.011684397
6	0x3da677d7	0.081283264
7	0x3d963ede	0.0733621
8	0x3da79bb4	0.08183995
9	0xbd274f24	-0.04084696
10	0xbd9e6866	-0.07734756
11	0xbc8ad3d8	-0.016946718
12	0x3cdf01fe	0.02722263
13	0xbd50407a	-0.05084274
14	0xbd1283e4	-0.035770312
15	0x3c8114d7	0.015757008
16	0xbdb05dfe	-0.086116776
17	0x3d6b5e87	0.057463195
18	0xbd484637	-0.048895087
19	0x3d72536d	0.059161592
20	0x3e16fa6a	0.14743963
21	0x3dabd0d5	0.08389441
22	0x3d8a7de0	0.0676229
23	0x3d13b645	0.036062498
24	0xbd4b27f9	-0.049598668
25	0x3dac02fd	0.083990075
26	0x3d3100ca	0.043213643
27	0x3d91b098	0.07113761
28	0xbd6dbdce	-0.05804234
29	0xbc82341b	-0.015893986
30	0x3d94a517	0.07258051
31	0x3c2946e5	0.010331844
32	0xbd24c7e2	-0.040229686
33	0x3e0ddabb	0.1385297
34	0xbd88bb2a	-0.06676324
35	0x3e00bdb3	0.12572365
36	0x3cd36b33	0.025807953
37	0x3d7919a9	0.060815487
38	0x3d33cbdb	0.043895584
39	0xbd745ff1	-0.05966181
40	0xbb8894bc	-0.004168121
41	0xbd6e1124	-0.058121815
42	0x3df935ed	0.12168489
43	0xbd47bc02	-0.048763283
44	0xbdc9c8c8	-0.09852749
45	0xbb165eaa	-0.0022944608
46	0xbd2003f6	-0.039066277
47	0xbc1cb71d	-0.009565142
48	0xbd0b33ff	-0.033985134
49	0xbd7dcd92	-0.061963625
50	0xbc81225f	-0.01576346
51	0x3c08de28	0.008353747
52	0x3d946fb3	0.072478674
53	0xbdc99aa1	-0.09843946
54	0xbd824382	-0.06360532
55	0xbbfb0c07	-0.007661346
56	0xbd4b5ace	-0.049647145
57	0x3da99afb	0.08281513
58	0x3d0e2d3c	0.034711108
59	0xbd97f1e6	-0.07419185
60	0x3d8db7f2	0.069198504
61	0xbd0e51b5	-0.03474589
62	0xbcdc6fc3	-0.02690876
63	0x3dafe18f	0.08587944
64	0x3d178ef8	0.03700158
65	0x3ce25125	0.027626583
66	0xbda5c3d4	-0.08093992
67	0xbba35d7e	-0.0049855104
68	0x3d817d25	0.063226976
69	0x3dbdb912	0.09263815
70	0x3d47b2a2	0.048754342
71	0xbca16016	-0.019699138
72	0x3b77adeb	0.0037792872
73	0xbdaa28d9	-0.08308572
74	0x3d6f7b2d	0.05846708
75	0x3ceb0d3b	0.028692832
76	0x3d9ee0f2	0.07757749
77	0x3c1339bf	0.008985936
78	0xbc4a7e4f	-0.012359216
79	0x3d8f6479	0.070015855
80	0x3d6b2b76	0.057414494
81	0x3daabecd	0.083371736
82	0x3d8ae66c	0.06782231
83	0x3d334793	0.04376943

fc3.weight f4 [10, 84]
0	0xbd2d5824	-0.042320386
1	0xbe3a0225	-0.1816488
2	0x3e101955	0.14072163
3	0xbe1247ac	-0.14285153
4	0x3e20e12d	0.15710898
5	0x3d847030	0.064667106
6	0x3d4fa671	0.05069584
7	0x3ea66730	0.325006
8	0xbe1dd6fd	-0.15414043
9	0x3d613c0f	0.054988917
10	0xbc398638	-0.011323504
11	0x3d9b0279	0.07568831
12	0xbd6830dd	-0.056687225
13	0xbd7d6a67	-0.06186905
14	0x3e3d2f56	0.18475088
15	0xb9f1a43e	-0.00046089472
16	0xbdbf4df7	-0.093410425
17	0x3d8f06f0	0.06983745
18	0xbd49f418	-0.04930505
19	0xbcb7f0ff	-0.022453783
20	0x3d800b97	0.062522106
21	0xbdca23d1	-0.09870113
22	0xbdf2da79	-0.118580766
23	0x3e7e3a7e	0.24827
24	0xbdb9546a	-0.09049304
25	0xbe69c059	-0.22827281
26	0xbd7efa26	-0.06225028
27	0xbdad41b2	-0.08459796
28	0x3d06250b	0.03275017
29	0xbd8f7c62	-0.07006146
30	0xbdf4a4ed	-0.119455196
31	0xbe2c6dff	-0.16838835
32	0xbd8b1937	-0.06791919
33	0xbbc81f15	-0.006107221
34	0x3e49f1ab	0.19721095
35	0xbe6cc8b3	-0.23123436
36	0xbde6d092	-0.112702504
37	0xbd1f867a	-0.038946606
38	0xbd9684dc	-0.0734956
39	0xbd07ef0e	-0.033186965
40	0xbc4e6b00	-0.012598753
41	0x3cab22c0	0.020890594
42	0x3e8047ba	0.25054723
43	0x3c8999a7	0.0167969
44	0xbd7852ee	-0.060625963
45	0x3d8406fd	0.064466454
46	0xbe0c65b6	-0.13710675
47	0xbdd3a677	-0.10334485
48	0xbe14ded7	-0.14538132
49	0x3d1ca701	0.038245205
50	0xbd8b5fa6	-0.06805353
51	0x3e94e1d4	0.29078543
52	0xbd11d449	-0.03560284
53	0xbd8cf01a	-0.06881733
54	0x3dcc3e7e	0.09972857
55	0x3d5fc175	0.054627854
56	0x3ce4ca80	0.02792859
57	0xbe4824af	-0.19545244
58	0x3e9b12fd	0.30287924
59	0x3e49f493	0.19722204
60	0x3e272dce	0.16326067
61	0x3d53f963	0.051751506
62	0x3dcde23e	0.10052918
63	0xbe84c0f2	-0.25928456
64	0xbe02f48a	-0.12788597
65	0x3d8e78c5	0.06956629
66	0xbd8157ed	-0.06315599
67	0xbd9b7c7a	-0.075921014
68	0x3e5e1cd2	0.21690682
69	0x3d891cba	0.06694932
70	0xbd551bf8	-0.052028626
71	0x3c7b91a1	0.015354545
72	0xbb8ed8d2	-0.004359343
73	0x3e07b633	0.13253097
74	0xbe4147df	-0.18875073
75	0x3e1d68da	0.15372029
76	0xbeb3a5bd	-0.35087386
77	0x3ba5ee58	0.005063813
78	0x3e71cd53	0.23613481
79	0x3e778b63	0.24174266
80	0x3d2ad6f7	0.041708913
81	0xbead4087	-0.33838293
82	0x3c875676	0.01652072
83	0x3d92ee0e	0.071743116
84	0x3bdd20ae	0.0067482805
85	0xbe1213fc	-0.14265436
86	0xbd1945f8	-0.037420243
87	0x3e40792c	0.18796223
88	0xbe1e5796	-0.15463099
89	0x3e0d3eb1	0.13793446
90	0x3e37158b	0.17879312
91	0x3d44df0a	0.04806427
92	0xbe672efa	-0.22576514
93	0x3a15a15e	0.00057079445
94	0xbc163191	-0.009167091
95	0x3cbcff43	0.023070937
96	0xbdb05d71	-0.086115725
97	0x3da66b95	0.081259884
98	0xbd8c906e	-0.06863485
99	0x3d52168a	0.051291026
100	0xbd884e54	-0.06655565
101	0x3cd707ff	0.02624893
102	0x3d0519b2	0.032495208
103	0x3d372ef5	0.044722516
104	0xbdd92710	-0.10603154
105	0xbd6f11a2	-0.058366425
106	0x3d6bf231	0.05760402
107	0xbce2a18c	-0.027664922
108	0x3e48ce0a	0.19609848
109	0x3e153e6e	0.14574596
110	0x3e94653e	0.28983492
111	0x3dbde046	0.092712924
112	0xbd8c11fb	-0.06839367
113	0xbcf7f806	-0.030269634
114	0x3e0e7bcc	0.13914412
115	0xbc806f79	-0.015678154
116	0xbd8103a6	-0.06299524
117	0x3e6facd7	0.23405777
118	0xbe161888	-0.14657795
119	0x3d024450	0.03180343
120	0xbe495977	-0.19663034
121	0xbe962269	-0.29323128
122	0xbe09dc9c	-0.13463062
123	0xbc8114fb	-0.015757075
124	0x3ed05696	0.4069106
125	0x3e67e923	0.22647528
126	0xbea6c23d	-0.32570067
127	0x3da9f1d2	0.08298077
128	0x3e1b2f76	0.15154824
129	0x3ca50cfc	0.020147793
130	0xbdf90edd	-0.12161038
131	0x3d090de4	0.033460513
132	0xbe00b06b	-0.12567298
133	0xbe5ccf8c	-0.21563548
134	0x3dafc906	0.08583264
135	0xbd23e6d1	-0.040015046
136	0xbdd86b9c	-0.105674
137	0x3e110a9e	0.14164206
138	0xbd57a01b	-0.052642923
139	0xbe509838	-0.20370567
140	0x3e1a78af	0.150851
141	0x3d0cf101	0.034409527
142	0xbe261f70	-0.1622293
143	0x3d2276fd	0.039664257
144	0xbe5ef045	-0.21771343
145	0xbd3fae6f	-0.046797212
146	0x3d8969f5	0.06709663
147	0xbe2f39bb	-0.17111866
148	0x3eb43705	0.35198227
149	0xbe05c798	-0.1306442
150	0x3e4a6ee0	0.19768858
151	0x3d5d4553	0.05402119
152	0xbe765639	-0.24056329
153	0x3e466db1	0.19377781
154	0x3e4bd5d6	0.1990579
155	0x3bb2a74d	0.0054520727
156	0xbd661bfa	-0.056179024
157	0x3d4f04b2	0.050541587
158	0x3e5b4561	0.21413185
159	0xbc988add	-0.018620903
160	0x3da1adea	0.078944996
161	0xbcd30717	-0.025760217
162	0x3e30c369	0.17262043
163	0xbe882322	-0.26589304
164	0x3e2449da	0.16043797
165	0xbe22596a	-0.15854421
166	0x3d94c63b	0.07264372
167	0xbbe85ebb	-0.007091371
168	0xbe7a3749	-0.24435152
169	0x3ecb4bad	0.39706174
170	0xbdcdd7f1	-0.10050953
171	0xbe0ec038	-0.13940513
172	0x3e0b9304	0.13630301
173	0xbe1e4ade	-0.15458247
174	0xbe085fa8	-0.1331774
175	0xbe2d8bf8	-0.16947925
176	0xbe36c9cc	-0.17850417
177	0xbd0e4fca	-0.03474406
178	0xbd5c4aa8	-0.053782135
179	0xbc07b248	-0.008282252
180	0xbd57e1ec	-0.05270569
181	0xbdb49f0a	-0.08819397
182	0x3e461219	0.19342841
183	0xbcb6a944	-0.022297509
184	0x3d930ec5	0.071805514
185	0xbd1e2d1f	-0.03861725
186	0x3c2c1ca1	0.010504873
187	0xbdf088e1	-0.117448576
188	0xbdf7a299	-0.1209156
189	0xbe9dc990	-0.30817842
190	0x3df59705	0.11991695
191	0x3d488bda	0.048961498
192	0x3e45186d	0.19247599
193	0xbde49006	-0.11160283
194	0xbe7b8a77	-0.24564539
195	0xbd2aece9	-0.04172984
196	0xbdb1a47c	-0.08673951
197	0xbd35eacc	-0.044413373
198	0x3df6aecb	0.12045058
199	0x3e2cf72f	0.16891168
200	0xbdf3f355	-0.11911646
201	0x3e94dc65	0.29074398
202	0x3dd38b8b	0.1032935
203	0xbe5854ad	-0.21126051
204	0xbd7d01d1	-0.06176931
205	0xbdabcba0	-0.08388448
206	0x3eaed405	0.34146133
207	0x3e580801	0.21096803
208	0x3d3f7cf7	0.046750035
209	0x3ca30868	0.01990147
210	0x3e7c94eb	0.24666183
211	0xbde88834	-0.11354104
212	0xbe472482	-0.1944752
213	0xbe43c16b	-0.19116752
214	0xbdb67a64	-0.08910063
215	0x3d0c7694	0.034292772
216	0x3d8da8cb	0.0691696
217	0x3b9b08a8	0.0047312565
218	0xbd5e1e14	-0.054227903
219	0xbe035dec	-0.12828797
220	0xbd25a78b	-0.040442985
221	0x3d80ef2f	0.06295621
222	0x3cf28aec	0.029607259
223	0xbcb566d2	-0.022143755
224	0xbdc5e2c4	-0.09662393
225	0x3d84d7b1	0.06486452
226	0xbddab979	-0.10679907
227	0x3cd47a96	0.02593736
228	0x3dea86c7	0.11451488
229	0x3d2735eb	0.040822905
230	0xbb9f0924	-0.0048533846
231	0xbe0eb0df	-0.13934658
232	0x3b84c5a3	0.0040518804
233	0x3eb48b57	0.35262558
234	0x3db8ec41	0.09029437
235	0xbe02348f	-0.12715362
236	0xbe297e9d	-0.16552205
237	0xbe6e6a8e	-0.23282835
238	0x3e6d4ccf	0.23173831
239	0xbd9f1061	-0.07766796
240	0xbd099546	-0.033589624
241	0x3e5b9312	0.21442822
242	0xbcbdb316	-0.023156684
243	0xbe954c9e	-0.29160017
244	0x3e15227a	0.14563933
245	0x3dfa55e3	0.12223413
246	0xbcc8534e	-0.024453785
247	0x3da76ba1	0.081748255
248	0xbd8193ba	-0.06327005
249	0xbe0bc4cd	-0.13649292
250	0xbe709175	-0.23492987
251	0x3e8532c9	0.26015308
252	0xbe81e20a	-0.25367767
253	0xbd9b4abe	-0.07582615
254	0xbe4c5d67	-0.19957505
255	0x3e025144	0.12726313

fc3.bias f4 [10]
0	0xbd624370	-0.055240095
1	0x3d97004f	0.07373106
2	0x3d8e89ba	0.06959863
3	0xbc3a3b88	-0.011366732
4	0xbdbaa070	-0.09112632
5	0xbd1a6b0d	-0.037699748
6	0xbd38a937	-0.04508325
7	0xbd28be6b	-0.04119722
8	0x3d1e9075	0.038711984
9	0xbdaece96	-0.08535497
